Using TensorFlow backend.
Found 39680 images belonging to 2 classes.
Found 9921 images belonging to 2 classes.
_________________________________________________________________
Layer (type)                 Output Shape              Param #
=================================================================
input_1 (InputLayer)         (None, 512, 512, 3)       0
_________________________________________________________________
Conv2D_1 (Conv2D)            (None, 510, 510, 32)      896
_________________________________________________________________
MaxPooling2D_1 (MaxPooling2D (None, 255, 255, 32)      0
_________________________________________________________________
Dropout_1 (Dropout)          (None, 255, 255, 32)      0
_________________________________________________________________
Conv2D_2 (Conv2D)            (None, 253, 253, 256)     73984
_________________________________________________________________
MaxPooling2D_2 (MaxPooling2D (None, 126, 126, 256)     0
_________________________________________________________________
Dropout_2 (Dropout)          (None, 126, 126, 256)     0
_________________________________________________________________
GlobalAveragePooling2D_1 (Gl (None, 256)               0
_________________________________________________________________
Dropout_3 (Dropout)          (None, 256)               0
_________________________________________________________________
Dense_1 (Dense)              (None, 2)                 514
=================================================================
Total params: 75,394
Trainable params: 75,394
Non-trainable params: 0
_________________________________________________________________
/home/yilonghao/ml/venv/lib/python3.5/site-packages/keras/callbacks.py:1065: UserWarning: `epsilon` argument is deprecated and will be removed, use `min_delta` instead.
  warnings.warn('`epsilon` argument is deprecated and '
…
